hand-gesture-recognition-mediapipe-main/model/keypoint_classifier/keypoint_classifier.tflite (tflite, 6740 bytes, 6 tensors)

sequential_6/dense_20/BiasAdd/ReadVariableOp f4 [7]
00000000: ad86 1ebe f81f 3fbe 020a deba 787c fa3d
00000010: 3d1f 96be 4e09 dcb8 c5e8 b63e
-0.15481062 -0.18664539 -0.0016940238 0.12230772 -0.29320708 -0.000104921506 0.35724464

sequential_6/dense_19/BiasAdd/ReadVariableOp f4 [10]
00000000: 6eac 71bd 1baf 683d c0e0 e7ba 3bae d73d
00000010: 3582 c13d eb7a 043e bbb1 003f 3807 193d
00000020: 5a10 623e 749d 233f
-0.059002332 0.05680762 -0.0017690882 0.10531279 0.09448663 0.12937514 0.50271195 0.0373604
0.2207655 0.6391213

sequential_6/dense_18/BiasAdd/ReadVariableOp f4 [20]
00000000: e718 9e3d e504 7c3e 8f35 403e ac9c 333e
00000010: b91e c03d a43b 1f3e 4d22 163e cdcc 043e
00000020: dcce 033d 277d 1d3d 7a1a 173d f3ac d73d
00000030: 6a4a da3d 75c8 4d3e f382 97bd b69a aabd
00000040: 0066 e4b8 efe4 f2bd fd38 2f3e c6e4 0bbe
0.077195935 0.24611242 0.18770431 0.17540234 0.0938086 0.15550095 0.14661522 0.1296875
0.0321797 0.038449433 0.036890484 0.10531034 0.106587246 0.20096 -0.073980235 -0.0833029
-0.00010890886 -0.11860072 0.17111583 -0.13661489

sequential_6/dense_18/MatMul f4 [20, 42]
00000000: 8c84 383e 5c20 02be c1ce 03be 9632 1e3f
00000010: 23a0 0d3e 487e be3d 047a 10be 22c8 173f
00000020: 00c3 103e 3ea0 0f3f 8e6f 04be 64a1 35bd
00000030: 5b60 e73d 77e3 943e 31f7 223e 7572 a73e
00000040: 95a6 9dbe 3ffc 20bc 452c bcbe 167c c83d
00000050: 811b bc3c 69dc 2cbe 5914 1bbe 8d6c 923c
00000060: 852f 5c3e 97cb 8b3e 3a3a bb3c dc56 1abe
00000070: 074d 453d 9a51 953d 8e7b a33d 53a0 22be
00000080: f5ea 303e d230 8d3e 93b6 35be 7105 763e
00000090: f323 8fbe a032 1dbe d8d5 3abe be63 66bd
000000a0: 8a72 d03e 726a 703d 914e 98be 107c 603d
000000b0: e8ff 65be a375 1e3f 85f3 9cbe a3f5 d83e
000000c0: bd8a debe 5f21 c93e 24d0 a9be b5bb 313e
000000d0: 3dae a5be c557 77be e474 c2be aed5 6b3e
000000e0: 2db0 36be a056 dd3e e77a 64bb 163e 013f
000000f0: 32a3 38bd 456e 6c3d 5ee0 dcbd 7ca8 a03c
00000100: 55f1 acbd f0b0 5d3e 9223 c33e ada3 bc3e
00000110: f895 6f3d 3538 0abf 1dac 0e3e daf2 77be
00000120: 2e7c 00be 6700 9f3e 2af5 b43e a8d6 773e
00000130: 6aa0 943e a425 a6be e5cb f73d 8c86 70be
00000140: 9bb8 263e 7947 4dbe 7cff b13d 7b54 bbbc
00000150: bee1 8d3e 794e 6dbe 7ecd babe 4693 dabe
00000160: b3ab f0be 2368 1dbe a653 44be 0c36 c2be
00000170: 5c2a 05be 52e3 ecbd d4fe 24be 8db6 d5be
00000180: f0af 2ebe 3ca6 9ebe da06 543e 78c0 403e
00000190: a5f0 a5bd d2d5 573d d6ad c83c 4a5a 80be
000001a0: 35fd 1ebe f1ea 16bd 6085 ca3d 5369 803e
000001b0: c402 e13d 36c8 6b3e fe56 d9bd 6142 e5bd
000001c0: 599d f1bd 7eb9 683e 74a9 a7bd 67ae 843e
000001d0: dd70 683d d796 9a3e 9dc6 0c3e 8146 063e
000001e0: 4fe5 c83d ec41 7c3e 2698 623e 462a dd3e
000001f0: 5290 9cbd 1422 143e 6ae6 58be d96b 00be
00000200: 8d84 b63d bd6b 893e 5272 943e eeec af3e
00000210: b60f 82bd 50a8 673e 46e6 eb3b 1da9 d23e
00000220: 6fd9 abbe 92f1 2e3e a1ab cf3d 17e6 f23e
00000230: 545c e03d 8435 e93c e208 1ebe 5e0f 253e
00000240: 2363 06bd cf55 da3d bfdc c9be 8a4c f23e
00000250: cae9 b4bc 8d38 ac3e 21f1 c83e cc15 8f3e
00000260: 74f5 4abe 30d2 9e3d d37f 8abe 796f 303e
00000270: d714 523d b7d3 fd3d 4ff0 a83e a67f 30be
00000280: efec 023d 9884 9c3d 1d55 46be 8263 a3be
00000290: f43a 8b3d 0122 65bd fd58 a03e 11bd e5bd
000002a0: 0038 9639 0973 03be 420c 793e bf1a 9c3e
000002b0: 6627 1e3e 792e 7a3e 4410 1e3d fd6c e83e
000002c0: 5d26 c6bd 5ecd 123f 5899 b33b 9654 073f
000002d0: ae24 2e3c 16d7 903e c442 cfbd d7d7 5b3c
000002e0: 3552 573e d084 913e 6d39 ad3c a219 d83c
000002f0: c621 44be c989 29be 194d 0abd d6e8 543e
00000300: ba92 453e 85b8 6f3e 6f3b 59b9 3a31 a73c
00000310: 385e 84be 26ea 923e 29f5 24be 7bb6 4abe
00000320: 109c 90bd c69a de3d d9c0 a9bd 2185 db3d
00000330: 6e10 133c 8a25 78be ce3a 41be 3b4d f53d
00000340: b19f 893e 7d46 b5be 88c0 913d 1c31 2b3e
00000350: 5e8e 143d 4559 503c 0898 96bc 5243 293e
00000360: 79dc 5ebe 044f 1fba 7328 87be 2263 87bd
00000370: 7758 90be 82ac 3fbe f8fd bbbe bd44 55bd
00000380: 27e0 ffbd cd86 483e dec9 b0be ef06 713e
00000390: e4d4 d9be aea0 35bd ccb8 f4be 915b f4bd
000003a0: 4307 93bd e6a1 a03e a0bd 67bc 00fa 9b3e
000003b0: 308f 0abf c2d1 603e bdb3 edbe 1bce 0fbe
000003c0: 1477 6e3d 8527 b3bc e1c6 efbe 62ab cc3e
000003d0: 2b4f d8be 5afc 4ebe 1a06 01bf fd07 883d
000003e0: cb29 c3be 8a1b a9bd 998b 96bd 5361 9f3e
000003f0: c953 8ebe 6481 d9bd b86e f03d cc64 bebe
0.18019313 -0.12707657 -0.12871839 0.6179594 0.13830619 0.0930143 -0.14109045 0.59289753
0.14136887 0.56103885 -0.1293318 -0.044343367 0.11297675 0.29079792 0.15914609 0.3270451
-0.30791155 -0.009825765 -0.36752525 0.097892925 0.022962334 -0.16880955 -0.15144481 0.017874027
0.21502502 0.27303764 0.022854913 -0.15072197 0.048169162 0.07290955 0.079825506 -0.15881471
0.17277129 0.2757631 -0.17745428 0.24025513 -0.27957115 -0.15351343 -0.18245637 -0.056247465
0.40712386 0.058695264 -0.2974744 0.054805815 -0.22460902 0.6189825 -0.3065454 0.42374906
-0.43465224 0.39283273 -0.3316661 0.17356761 -0.32359496 -0.24154575 -0.37979805 0.23030731
-0.17840643 0.43230152 -0.0034863295 0.5048536 -0.04507751 0.05772235 -0.10784982 0.01961159
-0.08444468 0.21649528 0.38113075 0.36843625 0.05849263 -0.53992015 0.13932844 -0.24213734
-0.12547371 0.31054994 0.35343295 0.24202979 0.29028636 -0.32450593 0.12099437 -0.23488826
0.16281359 -0.20046796 0.08691308 -0.022867432 0.2771129 -0.23174466 -0.36484903 -0.42690486
-0.47005996 -0.15371756 -0.19172534 -0.3793186 -0.1300444 -0.115667954 -0.16112834 -0.41740838
-0.17059302 -0.30986202 0.20705739 0.18823421 -0.0810254 0.05269415 0.024496954 -0.25068885
-0.15526278 -0.03684515 0.098887205 0.25080356 0.109868556 0.23025593 -0.106122956 -0.111943014
-0.1179759 0.2272701 -0.081866175 0.25914308 0.05674826 0.30193207 0.1374764 0.13112833
0.09809362 0.24634522 0.22128353 0.43196315 -0.076447144 0.14466125 -0.21181646 -0.1254114
0.08912001 0.2684001 0.2899347 0.3436045 -0.06350653 0.226228 0.0071990816 0.41144648
-0.33564326 0.1708434 0.101401575 0.4744117 0.1095511 0.028467901 -0.15433076 0.16119143
-0.032809388 0.10660898 -0.39426228 0.4732402 -0.022084136 0.33636895 0.39246467 0.27946317
-0.19820195 0.07754934 -0.27050647 0.17230023 0.051289406 0.12393897 0.3299584 -0.17236194
0.03196424 0.07642478 -0.19368406 -0.31911856 0.06798354 -0.05594063 0.31317893 -0.11217702
0.00028651953 -0.12836851 0.24321082 0.30489156 0.15444717 0.2443179 0.03858973 0.4539565
-0.09675286 0.57344615 0.0054809265 0.5286344 0.010628862 0.28289098 -0.101201564 0.013418159
0.21027453 0.2842164 0.021145547 0.02637941 -0.19153509 -0.16556467 -0.033764932 0.20791945
0.19294253 0.23410232 -0.00020716873 0.020409215 -0.25853133 0.28694266 -0.16109146 -0.19796173
-0.070610166 0.108693644 -0.08288736 0.10718752 0.008976085 -0.2423307 -0.18870088 0.11977621
0.26879647 -0.3540534 0.071168005 0.16717952 0.036268584 0.012716596 -0.018383041 0.16529587
-0.21763791 -0.0006077143 -0.26398048 -0.06610705 -0.28192493 -0.1871815 -0.367172 -0.052067507
-0.124939255 0.19582672 -0.34529012 0.23537801 -0.42545235 -0.04434269 -0.4779724 -0.119315274
-0.071791194 0.3137352 -0.014144331 0.30464172 -0.54124737 0.21955016 -0.46426192 -0.14043467
0.05821903 -0.02186943 -0.4683142 0.39974505 -0.422479 -0.20213452 -0.50399935 0.06642149
-0.38117823 -0.08257206 -0.07350845 0.3112894 -0.27798298 -0.106203824 0.11739868 -0.37186277

sequential_6/dense_19/MatMul f4 [10, 20]
00000000: ed54 ff3e 8163 1b3f 7f62 9bbe 3dfb b43e
00000010: e4c7 3dbd a5b4 853e 9574 eebe 4e50 203d
00000020: 2e26 5d3e 8abc 08be f69d 37be 895e 083f
00000030: 5879 c23e 699e 13bd 5a00 cfbd e88f ec3d
00000040: d654 1a3c d23d d23e a5e5 9cbe 2694 673e
00000050: 3194 633e 1e2b d6bd 373b 1f3f 3543 473e
00000060: 2a15 bebe 261d 043f 4505 e13e 6d46 ee3e
00000070: 764c 713e 85fc 97be d52e 5f3e 9950 94be
00000080: 3c91 0d3e 4e52 083f 2980 4f3e a356 ab3e
00000090: e5ca 35be db13 f6be 0be6 f23e 3d32 6dbe
000000a0: 9acc a3be 5dad 983e f6c7 d53e 0313 37bd
000000b0: c300 45be d739 3ebe 3674 cc3e 2a1e 493e
000000c0: a4d5 5a3d 63b5 1bbf 94d7 923e 1c07 a43d
000000d0: b5b5 213e f20d 3c3e d6fd 84bd 6af5 9f3e
000000e0: f231 88bd 5fb3 2fbe f994 8b3e e337 4bbe
000000f0: 2cf6 063f 8332 4e3f 3db7 a13e 9156 133f
00000100: 1a6e 723e bc1c 683f 84b7 cebe 8011 293f
00000110: 88d4 f7bd 8376 1d3f a99b 033f d871 563d
00000120: c3eb 6d3e f479 b53d 3b96 803e f21d f33e
00000130: 3b37 86bd 0fc7 bbbe 429f d13e 7e0e 9bbe
00000140: 5022 f6bd 46ac 2cbe a232 10be 9c9e 05bf
00000150: b255 a7be c01c 723e c25e 03bf 62bf 593e
00000160: 288d d73e d059 1a3f dc6a dbbe 8b72 233f
00000170: 06bc 5f3f b388 f73e f66c 29bf 51b7 d9be
00000180: 88f9 863e 2b2b 1e3e e1b1 3cbf 1c42 9f3e
00000190: 96cf aabe 6a43 013f e56b a03e b14e 19be
000001a0: dded dfbe bec1 85bd 73a4 47be 8771 26bf
000001b0: 848d 263f fee7 2e3f b48d 1bbe e5fa b63e
000001c0: cd18 fd3e ce89 b73e a8f7 edbe ec6a 16bf
000001d0: e464 dc3d 67fa c63d 9a9a 6dbe dfda 983d
000001e0: 6a10 5abc 36eb efbe 54af cabd 40ca 03bf
000001f0: eea2 04bf a1da 813e aa5c 093f be04 1b3f
00000200: 6434 b13e cc94 41be 3025 32be 81ae ecbe
00000210: 1ebf 73be f71a a23e 104c 263f 42ee 043e
00000220: a70f 283f deaf 3f3f eaa0 013f ea7a 223f
00000230: 0245 933e eb50 863e 35fa 37bf aaf6 273f
00000240: 0d25 1c3f 7418 8cbb 2e8a 383e 8526 703e
00000250: 7806 15be 273b 733e 4169 543e 84b5 e93e
00000260: 1517 ba3e e0f7 303b 7d8b 223e aefe 203e
00000270: 2bcb e83e 3045 2a3f f81f ba3d 05df e13e
00000280: f382 d7be ca79 043f 58da fe3e 97a7 93be
00000290: d31d cbbe 53d9 873e 6708 c33e ebfb dc3e
000002a0: 5702 9b3e e565 103f b06a 233f 7f52 75be
000002b0: 5c63 e2be 1a6a 153e 3188 a93e e030 023f
000002c0: eeb7 893e cfa7 d1be b223 8fbe 6892 d3be
000002d0: b574 34bf 74bc 983d c89f 4ebd a23f 14bf
000002e0: 29b4 30bf 56a7 143e 4149 3d3e 22b5 16be
000002f0: 8688 223e 279a bcbe 1f05 40be 9b53 00bd
00000300: de54 88be f6a2 813e 7807 d23e 4533 5fbc
00000310: 4d67 f33e 4ed8 703e a584 fc3e 2f58 f63e
0.4986948 0.60698706 -0.30348584 0.3534793 -0.04633321 0.26114383 -0.4657332 0.039139085
0.21596596 -0.13353172 -0.17931351 0.5326925 0.37983203 -0.036039744 -0.10107489 0.115508854
0.0094196405 0.4106279 -0.30643955 0.22615108 0.222245 -0.10457443 0.6219973 0.19459231
-0.37125522 0.51606977 0.43949333 0.46538106 0.23564324 -0.29684845 0.21795209 -0.2896774
0.13824934 0.53250587 0.20263733 0.33464536 -0.1775318 -0.48062024 0.47441134 -0.23163696
-0.31992036 0.29819766 0.4175412 -0.044695865 -0.19238572 -0.18576752 0.39932412 0.19640413
0.0534264 -0.6082365 0.28680098 0.080091685 0.15791972 0.18364695 -0.06493728 0.31241924
-0.06650151 -0.17158268 0.27262095 -0.19845538 0.5271938 0.80545825 0.31585112 0.57553965
0.23674813 0.90668845 -0.40374386 0.6604233 -0.12101084 0.6150896 0.51409394 0.052354664
0.23234467 0.08861151 0.25114617 0.47483784 -0.06553503 -0.36675307 0.40941817 -0.30284494
-0.12018263 -0.16862592 -0.14081815 -0.52195144 -0.32682568 0.2364378 -0.51316464 0.21264413
0.4209988 0.60293293 -0.42854965 0.63846654 0.87396276 0.4834648 -0.66181886 -0.42522672
0.26362252 0.15446155 -0.7370892 0.31105125 -0.333615 0.5049349 0.31332317 -0.14971425
-0.43736163 -0.06531094 -0.19496326 -0.6501698 0.65059686 0.6832274 -0.15190774 0.35738292
0.49432984 0.35847324 -0.4647801 -0.587569 0.10761431 0.09715729 -0.23203507 0.07463621
-0.0133095775 -0.4685914 -0.098967224 -0.51480484 -0.5181111 0.25362113 0.5365702 0.6055411
0.34610283 -0.18904418 -0.17396998 -0.46226886 -0.23803374 0.31661198 0.6495981 0.12981513
0.65648884 0.7487773 0.5063616 0.634688 0.28763586 0.2623361 -0.7186616 0.65610754
0.60994035 -0.004275376 0.18021461 0.23452194 -0.14553249 0.23753034 0.20743276 0.45646298
0.36345735 0.0027003214 0.15873523 0.15722153 0.45467505 0.6651182 0.09088129 0.44115463
-0.42092094 0.51748335 0.49775958 -0.28838798 -0.39671192 0.26532993 0.38092348 0.43160948
0.30275223 0.5640548 0.6383467 -0.23957251 -0.4421643 0.14591256 0.33111718 0.5085583
0.2689814 -0.4094834 -0.2795692 -0.41322637 -0.7049058 0.074578196 -0.050445348 -0.57909596
-0.690249 0.14516959 0.18484975 -0.14717534 0.15872392 -0.3683636 -0.18751954 -0.031329732
-0.2662725 0.25319642 0.41021323 -0.013623063 0.4753975 0.23520014 0.4931995 0.48114154

sequential_6/dense_20/MatMul f4 [7, 10]
00000000: cbac 03bf 14de a73e 01bb 063f 28f3 65bd
00000010: 9508 32be 38f4 5f3e 7a0d 0cbe ea3f 7d3e
00000020: 4a46 0bbe 10d9 513e 1717 cdbe 33c4 78bc
00000030: 48c0 5cbe 8592 a63e 151e 973e 47f5 263f
00000040: 555c 9dbd 79b3 37be 9990 023e c328 dfbe
00000050: 7e46 6e3e 2f0e 30bf 8e03 2cbf 4d11 15bf
00000060: 16e5 4e3f 4cf7 ec3e 17aa d43d e178 c93e
00000070: 1f22 ebbd 3653 c33e d483 76bf be29 373f
00000080: 5512 003f 4d25 0b3f 8be9 0cbe 1aaf 52bf
00000090: d654 ad3e eb2a 40bf 22e5 2c3f 3f26 043f
000000a0: c89b ff3e 5b0c 073e fc12 50be 7c2a 443f
000000b0: 0d38 603e c034 14bf 30a4 9abe 3546 f63e
000000c0: 0e22 be3e aaa4 1bbf b299 2a3e ee69 9c3e
000000d0: b965 613e bc22 0b3f f424 313f 9093 d03e
000000e0: 953c 82bf 9b75 01bf ee85 0c3f 168a 633e
000000f0: 9c8a 0dbf 1bb8 12bf 735f 0ebe 85b1 6fbe
00000100: ae77 11bf 2a8a 93bf 6eff 3c3f f9dc b33e
00000110: e172 d53d 00ec 673f
-0.51435536 0.3278662 0.52629095 -0.056140095 -0.17386086 0.21870506 -0.13677016 0.24731413
-0.13601032 0.20492959 -0.4005668 -0.015183496 -0.21557724 0.3253366 0.29515138 0.65218014
-0.076836266 -0.17939557 0.12750472 -0.43585786 0.23269078 -0.6877164 -0.67192924 -0.58229524
0.8081831 0.46282423 0.103840046 0.39350036 -0.114811175 0.38149422 -0.96294904 0.7154807
0.5002797 0.5435379 -0.13760965 -0.82298434 0.33853787 -0.7506549 0.6753713 0.5162086
0.4992354 0.13188307 -0.20319742 0.76627326 0.21896382 -0.5789299 -0.3020339 0.4810044
0.37135357 -0.6079813 0.16660193 0.30549568 0.2201146 0.54349875 0.6919701 0.4073758
-1.0174738 -0.50570077 0.5489186 0.22220644 -0.55289626 -0.5731217 -0.13903598 -0.23407562
-0.5682324 -1.1526539 0.73827255 0.35129526 0.10422302 0.9059448
